DLnet_StudentPerformance.onnx (onnx, 4143 bytes, 5 tensors)

linear1.weight f4 [16, 32]
000000 e3 2d c5 bc 0c a6 c1 be 33 1f 1a 3e c9 41 5a bd
       -0.024069732 -0.37821996 0.15050964 -0.053285394
000010 7d d2 a7 be 03 19 8e bd cc 03 36 3e 55 19 83 3e
       -0.32777777 -0.06938364 0.17774886 0.25605264
000020 ef 2c 3a 3c f0 e7 27 ba b6 f6 96 3e 8c ae 0d 3e
       0.011363252 -0.0006405106 0.294851 0.13836116
000030 be 2f 1a 3e a2 43 ce 3c a8 81 6b 3e ed 16 30 be
       0.15057275 0.025178734 0.22998679 -0.17196245
000040 63 a8 cf 3c e8 dd 31 bd 9c 0a e4 3e c0 f2 c9 bd
       0.025348848 -0.043424517 0.44539344 -0.09860754
000050 7e d1 88 be 97 c5 5d 3e 3d 00 09 be 9a 0a 50 be
       -0.2672233 0.21657406 -0.13378997 -0.20316544
000060 f2 8d 43 3b 70 52 1d 3e f2 10 a2 be 8b b6 04 3e
       0.0029839245 0.15363479 -0.31653553 0.1296026
000070 04 7b 45 3e 02 d5 33 bc b3 0a fc bd 5d bd de 3e
       0.19285208 -0.010976078 -0.12306728 0.43503848
000080 c8 82 6b 3d 2f fa 68 3e 68 f2 dd 3b 51 bb e8 be
       0.05749777 0.22751687 0.006773282 -0.4545541
000090 11 18 dc bd 75 a4 dd 3c ca c0 21 3e a0 f3 a9 bb
       -0.10746778 0.027055958 0.157962 -0.005186513
0000a0 93 31 02 be 1c 0a 1e 3e 8a b2 9c 3e f1 65 a2 be
       -0.12714224 0.15433544 0.30604964 -0.317184
0000b0 34 d5 33 3e 6a 7e db bd 88 e2 3a be 35 65 12 be
       0.175618 -0.10717471 -0.18250477 -0.1429642
0000c0 e6 2e 32 3e 1a 17 11 3e ea 8b 42 bd c9 e6 d0 3d
       0.17400703 0.14168969 -0.047496714 0.10200269
0000d0 be b1 bc 3d c4 c9 94 be ae 62 48 bc 93 d1 19 be
       0.09213589 -0.29060185 -0.012230558 -0.15021352
0000e0 b4 81 07 be 1f da cf bd 80 aa c4 bd 6a 60 91 be
       -0.13233072 -0.10149025 -0.09602833 -0.2839387
0000f0 ce 2a 5a be 2c 9c bf 3d 81 f2 5a 3d d6 83 9b 3e
       -0.21305391 0.09355959 0.053453926 0.3037402
000100 79 c0 0a be f4 91 9d be 76 18 27 3c 4b a1 96 3e
       -0.13549985 -0.30775416 0.010198703 0.29419932
000110 8a 49 9e 3e dc f3 8d 3e dd d5 58 be 6d 18 4d be
       0.3091548 0.27725112 -0.21175332 -0.20028849
000120 58 60 96 bb 31 27 5e 3e fd 5c 49 3d ca 98 a7 3e
       -0.004589122 0.21694638 0.049160946 0.32733756
000130 e3 c6 ac 3b c5 2b 6f 3e 4e 1c 71 be 29 8d 0a be
       0.0052727326 0.2335654 -0.23545954 -0.13530411
000140 3c 13 57 be b8 94 88 3e 51 0d 64 bd 8f 06 0b bd
       -0.21003431 0.26675963 -0.055676762 -0.0339418
000150 68 36 32 3e 03 74 84 3e ea 52 cb 3e 4a f8 59 3e
       0.17403567 0.2586976 0.39711696 0.21286121
000160 0b 3f cf bd 04 9a 13 be f0 b7 f9 bd 18 f3 31 be
       -0.10119446 -0.14414221 -0.121932864 -0.17377889
000170 58 52 74 bd 3b c9 d5 3d 8b ff bd 3e 1d c7 f5 3e
       -0.05964884 0.10438772 0.37109026 0.48003474
000180 31 7a bb 3e d3 0b 72 bc e6 aa 78 3e 30 26 15 be
       0.36616662 -0.014773327 0.24283943 -0.14565349
000190 8e 4e 1d 3e f9 f9 91 3e db 56 29 be c6 12 02 bd
       0.15361997 0.28511027 -0.16537039 -0.031756185
0001a0 ac f7 8d bd 74 5b 9e bd 64 03 12 be e3 98 8c 3e
       -0.06932005 -0.07732287 -0.14259106 0.27460393
0001b0 a8 ab de 3d 87 7b 96 bd be 2a 41 3e 8b 35 98 be
       0.108725846 -0.0734778 0.18863961 -0.2972835
0001c0 29 04 6e be e0 c0 a4 3d db 4a 9b bd 3d f7 33 3d
       -0.23243774 0.080446005 -0.07582637 0.043936957
0001d0 b4 ec de 3d a9 26 f6 3d 4e 84 2d 3d 7c 9d 10 3e
       0.10884991 0.120190926 0.042362504 0.14122576
0001e0 fc 35 99 3d 68 15 9f bd bf d2 9b 3d 03 31 3c 3e
       0.07481 -0.07767755 0.07608556 0.18378071
0001f0 03 b5 2e bb 92 64 4a 3d 8b bc 14 3e 56 ee c6 3e
       -0.0026658184 0.049412318 0.14525048 0.3885371
000200 0d 10 ba be ba 1d 9a bd 55 d2 a1 bd 0d 6c 19 3e
       -0.3634037 -0.07525201 -0.07901446 0.14982624
000210 31 43 af 3c 3a cd 4e bd 6f 3b 49 be 8e c9 2b be
       0.021394344 -0.050488688 -0.19651578 -0.16776106
000220 25 47 25 bd c3 08 35 be 7e 52 de bb 86 0e 41 3e
       -0.04035105 -0.17679124 -0.006784736 0.18853197
000230 fb 66 e0 bd 33 39 3f bc f9 5d ad bd 02 6d cf bd
       -0.10957142 -0.011671352 -0.084651895 -0.101282135
000240 df dc ac bc ea f5 8d be ed fb 11 3d f7 13 4d 3a
       -0.021101413 -0.2772668 0.035640646 0.00078231044
000250 00 27 d0 3c 0e 1c 12 bd 91 75 be 3e bc f9 bb 3e
       0.025409222 -0.035671286 0.3719907 0.3671397
000260 5c 8d 97 be 36 fc 79 be 5b b4 8a bd b3 04 17 3e
       -0.29600036 -0.24412617 -0.06772681 0.14747886
000270 ca a1 9c 3e 4f 4e 98 3d 15 1d 43 3d 4c 68 5e 3e
       0.30592185 0.07436811 0.047635157 0.21719474
000280 e4 f1 18 be 87 e2 ac 3e fc 9d 73 bd 76 52 b0 3e
       -0.14936024 0.33766577 -0.059476838 0.34437913
000290 84 55 9c be a9 df 31 3d 67 29 14 3e e1 c8 b4 be
       -0.30533993 0.04342619 0.14468919 -0.35309508
0002a0 54 5f 69 3e 03 47 17 be c0 82 25 3e 7a d8 55 be
       0.22790271 -0.14773183 0.16163158 -0.2088336
0002b0 16 a4 62 3e 22 cf 8b bd ae 50 0d 3d 84 6a 90 3e
       0.22132906 -0.06826617 0.03450077 0.28206265
0002c0 76 eb 12 be 9f a7 fc bd e9 f5 df be ca 8a ea bb
       -0.14347634 -0.12336659 -0.43742302 -0.007157658
0002d0 0e 13 ae bd da 84 cc bd 6b a7 63 be 99 39 a1 bd
       -0.08499728 -0.09986277 -0.22231834 -0.07872314
0002e0 ec ed a7 3d 8d 7c 25 3e a2 4f 16 3d b1 2f 9a 3e
       0.08199677 0.16160794 0.036697038 0.3011451
0002f0 43 51 86 3e 25 c6 6f bc e3 de c2 bb a3 5a f5 3e
       0.26233873 -0.014634644 -0.0059469803 0.47920713
000300 68 26 8d be 9a d6 b4 3e 93 18 45 be 89 02 a7 be
       -0.27568364 0.35319978 -0.19247656 -0.32619122
000310 c6 4e f1 3e c4 80 f6 3d ee a1 ca 3c c5 12 76 be
       0.47130412 0.12036279 0.024735417 -0.24030598
000320 02 aa 69 3e a0 dc 7d be 0a 02 3f be c9 25 b0 bb
       0.22818759 -0.24791193 -0.18653122 -0.005375598
000330 e9 1b 67 be d4 c8 e7 3c f5 e4 13 be 39 9e 9c 3e
       -0.2256924 0.028294004 -0.14442809 0.30589464
000340 48 f0 71 3e d7 3c 21 3e 09 06 a9 bd 9d 3e a0 3d
       0.23626816 0.15745865 -0.08253104 0.078244425
000350 ae 43 b7 bc a0 1a 6d bd 99 6c ed bd 88 ed 44 3e
       -0.02237114 -0.05788672 -0.11592979 0.19231236
000360 24 58 dd bc af c4 e2 bc 20 be 98 be 96 77 0b 3e
       -0.027019568 -0.027681677 -0.29832554 0.13619837
000370 18 6b c2 3e 19 08 42 bc e9 5f 04 3d 1d 38 ed 3e
       0.3797233 -0.011842751 0.03231803 0.46331874
000380 be b7 c8 3b f5 ce 23 be 19 21 72 3e fe 97 0e bf
       0.0061254194 -0.15996917 0.23645438 -0.5570067
000390 98 53 d9 3d da d6 0f 3e 52 1d 6f 3e 13 59 5a 3e
       0.10611647 0.14046803 0.23351029 0.21323042
0003a0 58 9d f7 bd f6 ad 7a be ff ea f7 be 61 fc 2d bd
       -0.12090558 -0.24480423 -0.48421475 -0.042477015
0003b0 72 de 4e 3c f6 e4 78 3d 0f b3 92 bd 05 3b a6 3e
       0.012626277 0.06076523 -0.07163059 0.32466903
0003c0 9f 80 64 3c 62 14 bd 3e b2 b2 ea 3e d4 fc 5c bb
       0.013946681 0.36929613 0.4583946 -0.0033720033
0003d0 d7 36 cf bc e4 4d 22 be 6d 03 b6 be 8a 30 7d 3e
       -0.025294704 -0.15850025 -0.3554949 0.24725547
0003e0 f5 82 30 3e 1e bc bf 3d a2 c2 0c be 35 86 88 bc
       0.17237456 0.093620524 -0.13746122 -0.016665557
0003f0 e8 5f de 3d c0 e8 72 3e 16 f0 86 bb 87 5c ed 3e
       0.108581364 0.237216 -0.004117976 0.46359655

linear1.bias f4 [16]
000000 98 15 c7 3e 09 e5 99 3e 28 e8 9d 3e 48 36 76 3e
       0.38883662 0.30057552 0.30841184 0.24044144
000010 9b db f4 3e 01 76 dd 3e 44 f6 a2 3e 3b 81 72 3e
       0.47823796 0.43254092 0.3182851 0.2368211
000020 eb 94 40 3e 5f d8 09 3f eb 7c eb 3e 20 3f b2 3e
       0.18806808 0.5384578 0.45993742 0.34813786
000030 08 bf 64 3e 9a f8 a6 3e a5 c4 9d 3e 83 c2 cb 3e
       0.22338498 0.32611543 0.3081409 0.39796838

linear2.weight f4 [10, 16]
000000 d2 33 10 3e a0 48 90 3d db 69 09 bc 94 bb 53 3e
       0.14082268 0.07045102 -0.008387054 0.20677024
000010 3a a3 a8 be cb 05 0b 3d a6 b7 5a 3d 0f 77 39 be
       -0.32937032 0.03394107 0.053397797 -0.18111823
000020 bb 2f 1a be 32 be c2 bd 87 03 33 be 48 8a 18 3e
       -0.1505727 -0.09508933 -0.17481814 0.148965
000030 19 b0 13 bd 65 8f 1a be 95 12 c6 3d 07 2b bf be
       -0.03605661 -0.15093763 0.09671513 -0.37337515
000040 5a ff b4 bd c0 94 2c 3e df aa 66 be d3 75 5c be
       -0.08837767 0.16853619 -0.2252612 -0.21529321
000050 83 e2 3b bc 89 6e 97 be 10 1b 96 be 3e 26 af 3d
       -0.011467579 -0.2957652 -0.29317522 0.08552216
000060 9a 7a 40 be d3 ff 9e 3b 43 39 6c be 46 6b cd bd
       -0.18796769 0.004852274 -0.23068719 -0.100302264
000070 42 cc 95 3e 73 39 51 3e 06 2a 96 be 12 ae 83 be
       0.292574 0.20432071 -0.29328936 -0.25718743
000080 4b c8 25 3f 56 62 d8 3e b1 fe 14 3f 84 aa ac 3e
       0.6475875 0.42262524 0.5820113 0.33723843
000090 ed 83 51 3e d0 77 a6 3e f0 b8 dc 3e 32 c0 10 3f
       0.20460482 0.32513285 0.43109846 0.56543267
0000a0 19 2d 07 3f a6 65 03 3f aa 68 31 3e a6 8c d9 3d
       0.5280319 0.5132698 0.17325082 0.1062253
0000b0 be 5b ce 3e 33 31 ae 3e c2 05 87 3e 66 36 93 3e
       0.4030437 0.3402191 0.2637158 0.2875244
0000c0 37 ea 80 3e 3e 46 bc bd ad 5d b2 3e 92 4e bf 3e
       0.25178692 -0.09193085 0.34837094 0.37364632
0000d0 0a bc d6 3e 35 ad 34 3e e5 2c fb 3d 9f 7e 9a 3e
       0.41940337 0.17644198 0.12264422 0.3017473
0000e0 3f e3 c0 3e 2f 96 39 3e c0 dc 5e 3e e8 d3 80 bd
       0.37673375 0.18123697 0.21763897 -0.06290418
0000f0 d2 2c 35 be e3 8d 9e bc d9 bf 3c 3e 52 29 ac 3d
       -0.17692879 -0.019354766 0.18432559 0.08406319
000100 62 f5 7b 3e fc 91 b6 3e fa 3b 31 3e ad 32 1f 3e
       0.24605325 0.35658252 0.17308035 0.15546675
000110 34 cf fb 3e 37 8b 9c 3e d9 09 02 3f 4b d9 fc 3e
       0.4918152 0.30574962 0.50796276 0.4938453
000120 12 27 9d 3e 10 77 40 3e 5b 7b 07 3f 04 62 e7 3e
       0.3069387 0.18795419 0.529226 0.45191967
000130 a6 1a 07 3f e6 5b 09 3f 21 1c b5 3e 24 70 29 3e
       0.5277504 0.5365585 0.35373023 0.16546685
000140 e2 40 9e 3e 02 1c bf 3d 51 0e d4 3e 75 2f ad 3e
       0.30908877 0.09331514 0.41417173 0.3382527
000150 5b ef a0 3e 60 f4 4c 3e 55 7a 01 3f 11 c5 56 3e
       0.31432614 0.20015097 0.5057729 0.20973612
000160 d2 5e b4 3e 9e f4 84 3e dd f1 7c 3e ca ca f3 3d
       0.35228592 0.25967878 0.24701639 0.11903913
000170 31 82 6a 3d 9b 32 61 3e c9 15 16 3f 5f 54 cb 3d
       0.057253066 0.2199196 0.5862699 0.09928202
000180 11 6b 90 3e 7c 75 b9 3e 64 ef 08 3e aa 28 48 3e
       0.28206685 0.36222446 0.1337257 0.19546762
000190 4e ab 32 3e 90 be 00 3f fb 95 3d 3e 1d 2d c4 3e
       0.1744816 0.50290775 0.18514244 0.3831567
0001a0 38 3b 52 3e 9e 87 51 3e 0a 8e 55 3e a6 29 04 3f
       0.20530403 0.2046189 0.20854965 0.5162605
0001b0 98 5f a3 3e d9 6a c7 3e f9 f5 fc 3e 9b 38 cb 3e
       0.3190887 0.38948706 0.49406412 0.39691624
0001c0 3a bb 96 3e 76 74 04 bb 60 c3 3e 3d f9 55 a4 3e
       0.29439718 -0.0020211018 0.046573043 0.32096842
0001d0 0c d4 14 3e 18 6c 9c 3e 0e 91 91 3e d5 b8 eb 3e
       0.14534014 0.3055122 0.2843098 0.46039453
0001e0 d2 62 e1 3d 4c c6 c9 3e 34 0c 13 3d a4 07 7e bc
       0.110051766 0.394091 0.03590031 -0.015504751
0001f0 63 ca 87 3d 3e e0 a0 3e 5a 98 03 3f c9 1a d3 3e
       0.06630399 0.31421083 0.51404345 0.41231373
000200 5c e2 96 be 34 28 a8 3c d0 f9 0a be 79 3a c7 bd
       -0.29469573 0.020526983 -0.13571858 -0.0972795
000210 b0 1b c7 3d fd 0b 69 be d3 f3 2f be be 65 11 3d
       0.09722078 -0.2275848 -0.17182855 0.03549742
000220 a4 e0 c5 bd df 40 39 be 73 43 fe 3c ed 2b 28 bd
       -0.096619874 -0.18091153 0.031038022 -0.041057516
000230 86 2c d8 3c d6 02 78 3d 05 2f a5 3c 8d 24 01 3e
       0.026388418 0.06054958 0.020164022 0.126116
000240 d9 5e 22 3e 9d ab 33 3e 27 d9 8a 3e f2 12 81 3d
       0.15856494 0.17545934 0.271188 0.06302442
000250 e9 c7 1f 3e d1 21 fe bd d1 e5 46 bd a4 c5 f6 3e
       0.15603603 -0.12408794 -0.048559014 0.48197663
000260 2f 3e ed 3e 5f 21 94 3d ab 1d 83 3e 90 32 95 3e
       0.46336505 0.072329275 0.25608572 0.2914014
000270 7b 55 c6 ba 96 a7 45 3e 3e aa b8 bd 44 4d 3c be
       -0.0015131676 0.1930221 -0.09016846 -0.1838885

linear2.bias f4 [10]
000000 aa 9d 98 bd 68 1a 94 3e 58 db 6c 3e c9 e4 f5 bd
       -0.07451947 0.28926396 0.23130548 -0.12006528
000010 72 e5 75 3e 0e cd dc 3e 26 da c3 3e c4 12 1b 3e
       0.24013308 0.43125194 0.38252372 0.15143877
000020 df 82 75 3c cc e3 41 3e
       0.014984815 0.18934554

linear3.weight f4 [1, 10]
000000 bd 7a 39 be 2d 36 ae be 8c 6e e0 3e 16 32 a4 3e
       -0.18113227 -0.34025708 0.4383434 0.32069463
000010 c2 6e fc 3e a4 f7 21 3f e1 d6 0c 3f 24 87 b5 3e
       0.49303252 0.63268495 0.5501538 0.35454667
000020 77 a3 42 be bd 7c 54 3e
       -0.1900767 0.20750709
