DLnet_StudentData.onnx (onnx, 4143 bytes, 5 tensors)

linear1.weight f4 [16, 32]
000000 71 bf fd 3d fd e3 6f 3e 16 c9 72 be 97 7f 82 bb
       0.1239003 0.23426814 -0.2370952 -0.003982495
000010 26 e4 71 3e b8 c9 dc bc e3 ae 63 3d 1b 5b 95 3e
       0.23622188 -0.026951656 0.055586707 0.2917107
000020 6f 11 3a 3e 2a a6 9e 3d 93 ce bd bd bc 58 46 be
       0.18170713 0.07746537 -0.092679165 -0.19369787
000030 f0 be 4c be 32 95 ae 3d 09 da bd be de 02 13 3f
       -0.19994712 0.085245505 -0.3708041 0.5742625
000040 5f 0b ee bb 42 98 b0 be f5 1e b5 3d d1 ae b5 bd
       -0.007264539 -0.34491163 0.08843795 -0.08871234
000050 06 5c c7 be fd 66 2f 3d 1a 43 1f 3e 02 68 be 3d
       -0.38937396 0.042822827 0.15552941 0.09297182
000060 53 82 82 3d da 38 94 bd a0 d8 04 3d e7 4f ad be
       0.063725136 -0.07237406 0.032433152 -0.33850023
000070 d6 5c 41 be ad 0e 9c 3c 6d 31 c0 bd 42 85 5c 3e
       -0.1888307 0.019049967 -0.09384427 0.21535209
000080 96 77 ae 3d 45 c3 72 3e 84 7e 82 be 09 e9 4b 3e
       0.08518903 0.23707302 -0.2548715 0.19913115
000090 48 21 e5 bd 6a 34 85 bd 94 31 9b bd 95 bc 57 bd
       -0.111879885 -0.06504138 -0.07577816 -0.05267008
0000a0 2e 95 b5 3c d8 03 1d 3e 95 9e eb 3d 81 98 44 bd
       0.022165861 0.15333498 0.115048565 -0.047997
0000b0 3e 6b 20 bc 72 6a c0 bb 63 c2 b8 3d aa ee 59 3d
       -0.0097911935 -0.0058720643 0.09021451 0.053206123
0000c0 a3 e6 a8 3e 25 35 12 bd c4 98 b8 be 11 61 ca be
       0.32988462 -0.035695214 -0.3605405 -0.3952718
0000d0 df 3c f3 be 08 4d 61 be 90 de ee bd 39 a0 8c bd
       -0.47507378 -0.22002041 -0.11663544 -0.068664975
0000e0 8e fa 30 be d7 8c 2f 3e dc 3c b3 3d 7f 39 b6 3d
       -0.17283079 0.1714357 0.087518424 0.08897685
0000f0 08 21 1e be ec 6e c9 3d 1d ef cb bd 76 c9 63 3e
       -0.15442288 0.0983561 -0.099577166 0.2224482
000100 0a 3b 65 be e0 fb ee bc 65 8f a5 3d 22 e1 81 3e
       -0.22385803 -0.029172838 0.08083991 0.25367075
000110 15 b7 61 be 89 cb c1 bc 12 02 67 be c4 3d 11 be
       -0.22042497 -0.023656623 -0.22559384 -0.14183718
000120 d3 90 c7 3d 42 0f df 3c cd 7f 77 3e 97 77 42 bd
       0.0974442 0.027228955 0.24169846 -0.04747733
000130 47 3d 73 3d 96 53 54 3e 3e 7c 11 3d f6 09 ab 3e
       0.05938461 0.2073501 0.035518877 0.33406037
000140 0f 7b af be 7f 73 49 bd 69 24 ec 3d 4e e6 37 3e
       -0.34273574 -0.04918241 0.11530382 0.17958948
000150 4a ed 7c be 41 db 0e be a7 58 b4 3e 1e 13 90 be
       -0.24699894 -0.13950826 0.35223886 -0.28139585
000160 93 ee 2a bd 1a 03 c5 bd a2 7c 9a 3d 98 02 bf 3d
       -0.04173143 -0.09619732 0.07543303 0.093266666
000170 79 b9 34 3e 4b a4 be 3d b9 f4 de bd 78 5d 5a 3e
       0.17648877 0.0930868 -0.10886521 0.21324718
000180 64 a4 91 bd 4f f4 82 be 3f 12 55 3e 33 a9 38 bd
       -0.07111433 -0.25577018 0.20807742 -0.045083236
000190 85 17 86 3e 0e f9 3b 3e e4 0e 9f bd 2d 4f c5 3d
       0.2618982 0.18356726 -0.07766512 0.09634242
0001a0 9e 53 cc bd 99 aa a7 3d 5a 23 b3 bd f6 a6 4b 3e
       -0.09976886 0.08186836 -0.08746977 0.1988791
0001b0 d7 56 49 3e 83 c9 f0 bd 40 60 83 bc 63 93 40 be
       0.19662033 -0.11757185 -0.016037107 -0.18806224
0001c0 16 6d f5 3d 02 26 ec 39 aa 95 5a 3e 83 36 17 3e
       0.11983697 0.00045041746 0.21346155 0.14766888
0001d0 95 b8 22 3e da 1f da bd 6b 85 1b bb 2e db 89 3c
       0.15890725 -0.106506065 -0.0023730646 0.016828146
0001e0 f5 3b 83 3e 3e 9b f4 bd 97 e3 14 be 7c c5 f5 3d
       0.2563168 -0.119436726 -0.14539944 0.12000558
0001f0 0e 44 5f 3d 5d e7 79 3e d1 e6 01 3e 33 27 01 3f
       0.05450826 0.24404664 0.12685706 0.5045044
000200 cd 1f c3 be dd 22 82 3e 58 2e d7 3c b1 92 9f be
       -0.381102 0.25417224 0.026267216 -0.31166604
000210 90 f8 93 3c 5f c9 82 be dc d2 e0 3e 28 4b 8a be
       0.01806286 -0.2554426 0.43910873 -0.27010465
000220 11 6c 5b 3e d0 54 28 be fd 70 43 3e e9 d6 a1 be
       0.21427943 -0.16438603 0.1908607 -0.31609276
000230 17 35 e7 3d 45 57 12 be 46 19 2e bd a1 18 81 be
       0.11289423 -0.14291103 -0.04250457 -0.25214103
000240 67 34 73 3e e2 2f b7 bd 0a 85 ee bc 83 78 a3 3d
       0.23750459 -0.0894468 -0.029116172 0.0798197
000250 4f 65 6c be 40 32 aa 3d 8c 60 b2 be 44 55 e2 bd
       -0.23085521 0.08310366 -0.34839284 -0.110514194
000260 a4 e4 67 3e 10 be 0b 3e c6 1d ff bb 37 3b e3 3d
       0.22645813 0.13646722 -0.0077855317 0.11095279
000270 58 49 5d 3e 17 df f3 3d 75 6c b7 bd 99 9d 99 3e
       0.2161001 0.119077854 -0.089562334 0.3000305
000280 42 8f 88 be 21 c7 06 3d ef d6 4d bd 59 5b 25 bd
       -0.26671797 0.032904748 -0.050253805 -0.04037032
000290 7a 2b 68 3e f3 c4 bc 3e e5 88 f9 bd 33 2b 46 3d
       0.22672835 0.3686901 -0.12184314 0.04838104
0002a0 32 77 ae 3d 21 ce 87 be f8 ab 28 3e f6 88 05 3e
       0.085188285 -0.2652445 0.16471851 0.13040528
0002b0 7f 8a 7b be 90 8b 11 be 9b b4 92 be 20 2c 00 3d
       -0.24564551 -0.14213395 -0.28653416 0.03129208
0002c0 e5 33 0e 3e 93 2b 6c 3e 97 6e 45 3e a4 57 95 3e
       0.13886984 0.23063497 0.19280468 0.29168427
0002d0 7e 5a bb be 7c 44 ae 3d 4b 87 af bb 32 7e f3 3d
       -0.36592478 0.08509156 -0.0053567044 0.11889304
0002e0 cf 60 c9 bd b5 d7 5d be fe 98 fa be bf 8f 98 bd
       -0.09832918 -0.21664317 -0.4894485 -0.074492924
0002f0 93 ec 40 bd d9 ab ea 3c 98 b6 af 3d 77 4c b6 3e
       -0.047100615 0.028646396 0.08579749 0.35605213
000300 d2 90 c6 3d 00 a8 07 be cd 2c 38 be e4 24 61 3d
       0.09695591 -0.1324768 -0.1798584 0.054966822
000310 cb 26 1b be 58 3b 6f bd 8a 10 0e be d6 07 88 3d
       -0.15151517 -0.058406204 -0.13873497 0.066421196
000320 e4 9c 5c bd 39 8b 35 be 4f de 66 be c1 a4 93 bd
       -0.05386056 -0.1772889 -0.22545741 -0.07209159
000330 ad 48 f3 bd af 1b 83 bc ce 48 f6 bd ae 29 2d be
       -0.11879096 -0.016004412 -0.12025605 -0.16910431
000340 06 58 93 be d9 29 d8 bc f4 7a d4 3d c4 fa 8d 3e
       -0.28778094 -0.026387142 0.10375014 0.2773038
000350 b4 7c 7e 3e 00 bd 7b 3e 8b 4c 83 bd 65 c8 5f bd
       0.24852258 0.24583817 -0.06411084 -0.05463447
000360 7a 9c 0a 3e 93 f2 14 be a7 fd 96 bd 3a 0f 87 3e
       0.13536254 -0.1454566 -0.07372599 0.26378804
000370 99 b9 20 3d b1 50 ab bd ec 01 ad be 61 53 fd 3e
       0.0392395 -0.08365 -0.3379053 0.49477676
000380 00 fc 8d 3e f7 70 ac be e3 b6 4b be 02 de 25 3d
       0.27731323 -0.33679935 -0.19893984 0.040494926
000390 80 54 b7 bd 94 07 8d bc df 62 fb bd dc ee 38 3c
       -0.08951664 -0.017215528 -0.122747175 0.011287417
0003a0 7c 28 d9 3b 43 ce 7a 3d dc 7e bc bd 67 d6 ab 3e
       0.0066271406 0.061231863 -0.09203884 0.33562014
0003b0 37 3d 62 3c c5 fd 86 3e a8 7d f0 bc 00 8a 81 3e
       0.01380854 0.26365486 -0.029356793 0.25300598
0003c0 48 3f dc bd ab 45 68 be 47 85 5b 3d 83 64 bd be
       -0.107542574 -0.22682826 0.0535939 -0.36990747
0003d0 47 44 98 bd 3e b2 ee bd 58 e8 7f 3e eb 88 7b 3d
       -0.07434898 -0.11655091 0.24990976 0.061409872
0003e0 73 2b a8 be 93 6c 9d 3e ec d3 20 3e 93 5f e0 3e
       -0.3284565 0.30746898 0.15705842 0.43822917
0003f0 51 4a ce 3e 7f cf 12 3d 27 50 41 be 9e 88 b7 3e
       0.40291074 0.035842415 -0.18878232 0.35846418

linear1.bias f4 [16]
000000 73 68 63 3e 7a 35 8f 3e 22 52 f0 3d ab b3 05 3f
       0.22207813 0.27970487 0.117344156 0.52227277
000010 9a f2 18 3f b7 1f 16 3e 77 b6 0e 3e 91 44 77 3e
       0.5974518 0.14660536 0.13936792 0.2414725
000020 15 b8 0c 3f 71 65 a9 3e df 0f 8a bd 18 83 ec 3e
       0.54968387 0.33085206 -0.067413084 0.46193767
000030 a2 a2 90 3e 39 62 8a 3e f3 9a 45 3e f0 8c ea 3e
       0.2824908 0.27028063 0.1929739 0.45810652

linear2.weight f4 [10, 16]
000000 20 6d c9 3e fd 9f 9c 3e ba 9a c9 3e 10 84 19 3f
       0.39341068 0.3059081 0.3937586 0.59967136
000010 2a 1a 12 3f 44 8f d0 3e 93 b2 03 3f 6b b9 17 3f
       0.57071173 0.40734303 0.5144436 0.592673
000020 b9 1e 3c 3e 6c bf a6 3e 2c 5f 30 3f ce 77 f1 3e
       0.18371095 0.32567918 0.6889522 0.47161716
000030 29 9e 01 3f 1e 98 4a 3e 80 43 84 3e 90 03 de 3d
       0.5063196 0.1978459 0.25832748 0.10840523
000040 44 41 f8 bd 1b ad f9 3d f7 e7 00 3f 0e b1 6d 3e
       -0.121218234 0.121912204 0.5035395 0.23212072
000050 3d 4f 89 3e 61 97 f1 3d 1b 1a 1f 3f 74 a9 f2 3e
       0.26818267 0.11796451 0.6214921 0.47394907
000060 eb 79 c5 3d bf 82 d3 3e 39 f5 84 3e 27 96 02 3e
       0.09642395 0.4131069 0.2596834 0.12752591
000070 b9 4f 99 3e d9 a3 e6 bd 06 13 84 bd 91 55 07 3e
       0.29943636 -0.1126172 -0.06448941 0.13216235
000080 f0 2e 70 3e 85 92 52 3e 54 df 1d 3f c5 09 10 3f
       0.23455405 0.20563705 0.61668897 0.5626491
000090 10 ce 95 3e b8 2d d4 3e 80 29 09 3f 46 c0 d1 3e
       0.29258776 0.4144113 0.5357895 0.40967005
0000a0 b4 a3 a9 3e d8 77 08 3f ba 9e 99 3e 5c 0b 90 3e
       0.33132708 0.5330787 0.3000391 0.28133667
0000b0 10 f3 d7 3e b4 ba f5 3e 26 3d a2 3e 71 c2 d7 3e
       0.4217763 0.47994006 0.31687278 0.42140535
0000c0 92 82 89 be f0 3b 5e bd f2 75 fa 3d 1c e5 59 be
       -0.2685743 -0.05425638 0.122295275 -0.21278805
0000d0 c2 ef 52 3e 36 dc 04 3e 22 ad 09 be 7a 37 3e bc
       0.20599273 0.12974629 -0.13444951 -0.011609906
0000e0 0a 8a 0f be 1c c9 5b be d2 84 09 be c4 f1 a7 3d
       -0.14017501 -0.21463436 -0.13429573 0.0820041
0000f0 c6 76 31 b9 0e 7c ea bc 05 3a 3c bb 76 f0 71 be
       -0.00016924282 -0.028623607 -0.0028721106 -0.23626885
000100 e4 1b bd 3e e1 ca 9b 3e 96 03 80 3e 85 6d ee 3e
       0.3693534 0.30428222 0.25002736 0.46567932
000110 e0 19 d0 3e 06 02 94 3e 9c 43 43 3e 56 e9 1c 3f
       0.4064474 0.28907794 0.1906876 0.6129354
000120 38 45 9e 3e 28 ff 14 3e e8 de b8 3e 38 5a ed 3e
       0.30912185 0.1455046 0.36107564 0.46357894
000130 2b 7a d1 3e 04 ba a5 3e 52 7e 3a 3e 1a 3f f1 3e
       0.4091352 0.3236848 0.1821225 0.47118455
000140 ee 7e a5 3d ec a7 25 3e e4 2b 67 bd 72 5e af 3d
       0.080808505 0.16177338 -0.05643834 0.08562936
000150 97 af ff bd bd e0 d0 3c aa 08 38 bd 61 ca 83 be
       -0.12484663 0.025497789 -0.044930138 -0.2574034
000160 6d 68 24 3d e5 7e 93 be 90 8a 6f be e8 ac b6 3d
       0.04013865 -0.2880775 -0.23392701 0.08919698
000170 3f a0 a6 be 00 62 18 be a4 9b f9 3d 8f 91 51 3d
       -0.32544133 -0.14881134 0.12187889 0.051164206
000180 04 4c 4c 3d 5b 0e ea bd e6 64 6e bd 21 3c 47 be
       0.04987718 -0.11428519 -0.058201693 -0.19456531
000190 74 db a1 be 5e 93 32 be f8 b2 23 bd 89 c6 bd bc
       -0.31612742 -0.17439029 -0.0399656 -0.023165958
0001a0 3e f9 59 3e 65 c4 2c 3d ec 1f 87 bd 53 00 7b 3e
       0.21286485 0.042179484 -0.065978855 0.24511842
0001b0 43 9f 06 bf a8 6a 9b be cf e0 d5 be 77 b5 fc bd
       -0.52586764 -0.3035481 -0.41773078 -0.12339299
0001c0 8e 3d 76 be 1f 05 2a 3e 61 d4 af be aa 59 4d bd
       -0.24046919 0.16603516 -0.3434172 -0.05013434
0001d0 fc 2c 5b be 2c 0e ab 3e 3c 6a c6 be da 2e 8e 3d
       -0.21403879 0.3340925 -0.38752925 0.0694253
0001e0 68 fe d7 3d 24 25 0f be 66 70 72 3e 49 64 44 be
       0.10546571 -0.13979012 0.23675689 -0.19178881
0001f0 6b fb 8c be 61 95 19 be cf 6d ac 3d 92 59 8c 3d
       -0.27535567 -0.1499839 0.08419382 0.06853022
000200 4b 34 aa 3e 6c 48 9a 3e 56 2e 4f 3e e7 37 e3 3e
       0.3324302 0.30133379 0.2023252 0.44378588
000210 1a b5 6a 3e 92 25 8c 3e 19 3a 95 3e cd 6f 0a 3e
       0.22920647 0.27372414 0.29145887 0.13519211
000220 59 da c4 3e b4 cb fd 3e c8 40 40 3e 32 22 fb 3d
       0.38447836 0.49569476 0.18774712 0.122623816
000230 3b 47 ef 3e 99 39 d4 3e 27 44 d5 3e 61 d0 98 3e
       0.46734032 0.41450194 0.4165356 0.2984648
000240 88 53 f7 3e cc 25 0b 3f fb 5c 11 3f 10 93 95 3e
       0.48305917 0.5435455 0.567825 0.29213762
000250 4d 67 15 3f 7a 0a 26 3e 40 58 dc 3e 24 5f 97 3e
       0.5836075 0.16214934 0.4303608 0.29564774
000260 ac 86 bb 3e e6 b4 83 3d 15 d0 26 3f 42 85 ac 3e
       0.36626184 0.06430988 0.6516126 0.33695418
000270 43 66 9b 3e a0 12 bd 3e bf 68 5a 3e b2 5f b8 3e
       0.30351457 0.36928272 0.2132902 0.3601051

linear2.bias f4 [10]
000000 e5 9a c9 3e 59 be 9f 3d 81 70 99 3e d4 ed c6 bd
       0.39375988 0.07799978 0.29968646 -0.09713331
000010 cc 05 83 3e 7e 8b 6c be b8 80 3e 3f 91 a7 dc bb
       0.2559036 -0.23100087 0.7441516 -0.0067338427
000020 6b bc d5 3e 37 df 38 3d
       0.41745314 0.04513475

linear3.weight f4 [1, 10]
000000 14 c5 c1 3e ec 92 8e 3e c8 8c d2 3e 09 ab a1 bd
       0.3784567 0.27846467 0.41123033 -0.078939505
000010 72 bc 1f 3f 7f cb bf bd 49 1f 82 bf 74 d2 ab be
       0.6239692 -0.09364986 -1.0165797 -0.33559
000020 cc 01 20 3f c0 c0 b9 3e
       0.6250274 0.3627987
