DLnet_StudentData.onnx (onnx, 4143 bytes, 5 tensors)

linear1.weight f4 [16, 32]
0	0x3e614b99	0.22001494
1	0x3e6fb651	0.23409392
2	0xbdda4f73	-0.10659685
3	0xbed7256d	-0.4202074
4	0xbd77321c	-0.060350522
5	0x3e464477	0.19362055
6	0x3de14fa9	0.11001522
7	0xbe190c61	-0.14946128
8	0xbe8b687d	-0.27228156
9	0x3da2555b	0.079264365
10	0xbe81580e	-0.25262493
11	0xbec63003	-0.38708505
12	0xbe9fc454	-0.31204474
13	0xbe1af44e	-0.15132257
14	0xbe655356	-0.22395071
15	0x3dac17b7	0.08402961
16	0x3ea82654	0.32841742
17	0xbcb92ade	-0.022603448
18	0x3cbf10fc	0.023323528
19	0xbd86b88c	-0.06578168
20	0xbe3b8146	-0.18311033
21	0xbe951bdd	-0.2912282
22	0xbe0e5a66	-0.13901672
23	0xbc1a7ec6	-0.009429639
24	0xbda497c3	-0.08036759
25	0x3e8d9e4c	0.27659833
26	0xbd4c9055	-0.049942333
27	0x3d8b0d18	0.06789607
28	0xbd877c95	-0.06615559
29	0x3e63875d	0.22219606
30	0xbc39d758	-0.011342846
31	0x3e9afbea	0.3027032
32	0x3e870517	0.2637107
33	0x3e708e97	0.23491894
34	0x3d1d46e4	0.038397685
35	0xbd6c6962	-0.05771769
36	0xbe47ed3f	-0.19524096
37	0x3d2b1e7a	0.04177711
38	0xbd9222a7	-0.07135516
39	0x3edc565e	0.43034643
40	0x3e5f9eb8	0.2183789
41	0x3e928822	0.28619486
42	0x3dae3a25	0.08507184
43	0xbe8c1b37	-0.27364513
44	0xbe6d8fc7	-0.23199378
45	0xbea4123c	-0.32045162
46	0xbe85b979	-0.26118067
47	0x3e863f65	0.2622024
48	0xbdf82f86	-0.121184394
49	0x3e295740	0.1653719
50	0x3de3c397	0.1112129
51	0xbe639a8a	-0.2222692
52	0xbe60a932	-0.21939543
53	0xbe0e4072	-0.13891771
54	0x3e79769e	0.24361655
55	0xbdd6bac9	-0.10484845
56	0xbc184401	-0.009293557
57	0xbde239a3	-0.110461496
58	0x3df02119	0.11725063
59	0xbe9a5e0c	-0.30149877
60	0xbec6a8a9	-0.38800552
61	0xbe2f4501	-0.17116167
62	0x3e4d9cf2	0.20079401
63	0x3ed2ca0f	0.41169783
64	0xbef76a97	-0.4832351
65	0xbdd1cdc8	-0.10244328
66	0x3c04fb2a	0.008116523
67	0xbec9945f	-0.3937101
68	0x3ead44eb	0.33841643
69	0xbea51833	-0.32245025
70	0x3e4cc83d	0.1999826
71	0xbe9da1e9	-0.3078759
72	0xbe498d0d	-0.19682713
73	0xbeae46f9	-0.34038523
74	0x3c422129	0.011848726
75	0xbcc5a784	-0.02412773
76	0xbedcf39e	-0.43154615
77	0x3e37b5b6	0.17940411
78	0xbe0fa9d6	-0.14029631
79	0x3bae08c3	0.005311103
80	0x3e9f8315	0.31154695
81	0x3e9ad881	0.30243304
82	0x3d49736b	0.049182337
83	0xbe3a531e	-0.18195769
84	0xbe9e0d8b	-0.30869707
85	0x3dcc8095	0.099854626
86	0xbe3f47ac	-0.18679684
87	0xbe184edf	-0.14873837
88	0x3cee82e1	0.029115142
89	0x3ba5dba7	0.005061585
90	0x3cf2918c	0.029610418
91	0x3eaa7a1c	0.33296287
92	0x3ee21b04	0.44161236
93	0x3bb7943e	0.0056023886
94	0x3e4f63b0	0.20252872
95	0x3e8178ef	0.25287578
96	0xbf0e0c39	-0.554874
97	0x3e48b72b	0.19601123
98	0xbec6f688	-0.38859963
99	0xbea6aa8e	-0.32551998
100	0xbdfa8d5d	-0.12233994
101	0x3e2ccf02	0.16875842
102	0xbe1e8d63	-0.15483622
103	0xbe918c6f	-0.28427455
104	0x3dd42a7d	0.103596665
105	0x3e1c51a7	0.15265523
106	0x3ea84fae	0.3287329
107	0x3e3c9bc2	0.18418792
108	0xbde8a213	-0.11359038
109	0xbe6b0a17	-0.22953068
110	0xbdb45179	-0.08804602
111	0x3e450bbd	0.19242759
112	0x3eb6312e	0.35584396
113	0xbe397898	-0.18112409
114	0x3d2ba45d	0.041904796
115	0xbe8790f8	-0.2647779
116	0xbe8b9e91	-0.27269414
117	0xbe61f24c	-0.22065085
118	0x3ed21824	0.41034043
119	0x3e0f50ce	0.13995668
120	0xbc5d6687	-0.013513214
121	0x3dc02fcb	0.09384116
122	0xbe0b7779	-0.13619794
123	0x3e6138b3	0.21994285
124	0x3ec1e21f	0.3786783
125	0xbd8a6a22	-0.067585245
126	0xbe47b042	-0.19500831
127	0x3ea161a0	0.31519794
128	0xbee54924	-0.44782364
129	0x3e4acefc	0.19805521
130	0x3e1200e5	0.14258154
131	0x3e934468	0.28763127
132	0xbea02646	-0.312792
133	0x3eb421bc	0.35181987
134	0x3e4a61db	0.19763891
135	0xbe2c151e	-0.1680493
136	0x3e4e4c31	0.20146252
137	0x3e71bec6	0.2360793
138	0xbd104b3e	-0.035228007
139	0xbed66ba2	-0.41878992
140	0x3dcca282	0.099919334
141	0xbdcf5e19	-0.101253696
142	0x3dac275d	0.084059455
143	0x3c8f58ab	0.017498335
144	0xbe27d637	-0.1639031
145	0x3e074b16	0.13212237
146	0xbe86c81e	-0.26324552
147	0x3e8bcdb0	0.27305365
148	0xbedc72d8	-0.4305637
149	0xbe4210eb	-0.18951766
150	0xbd7b709a	-0.061386682
151	0xbc4bf2c5	-0.0124480175
152	0xbe0137fe	-0.12619016
153	0xbdfa1992	-0.122119084
154	0x3cedbbd0	0.02902022
155	0x3e123505	0.14278038
156	0x3d43be28	0.04778877
157	0x3ea5f0c6	0.32410258
158	0xbe4f953c	-0.20271772
159	0x3edb4399	0.4282501
160	0x3ccb4152	0.02481142
161	0xbe4a28a1	-0.19742061
162	0x3e3fa917	0.18716846
163	0xbea7b678	-0.327564
164	0x3e89a8f4	0.26886714
165	0xbc501c3b	-0.012702043
166	0xbee1d4c6	-0.44107646
167	0xbea27fa5	-0.3173801
168	0xbe95ce91	-0.2925916
169	0xbe9d3d99	-0.30711058
170	0xbec89d22	-0.39182383
171	0x3ccdc42a	0.025117952
172	0xbd732f02	-0.059371002
173	0x3ccd8bc7	0.025091065
174	0x3d828f91	0.06375039
175	0xbe9df2f8	-0.30849433
176	0xbeb45130	-0.3521819
177	0xbe99cc68	-0.30038762
178	0x3ee12116	0.43970555
179	0x3ea8edca	0.3299392
180	0x3e4faa55	0.2027982
181	0x3d135daf	0.035978016
182	0x3d1f39be	0.038873427
183	0x3cb0c43e	0.02157795
184	0x3ed35db4	0.41282427
185	0xbe1d3831	-0.15353467
186	0x3ddaff99	0.10693283
187	0x3e7fb53f	0.24971484
188	0x3d8c8c40	0.06862688
189	0x3d315a7f	0.043299194
190	0x3de328e1	0.110917814
191	0x3f2cc9a9	0.6749521
192	0x3e7da6f3	0.24770717
193	0x3e1c55ed	0.15267153
194	0xbe09a8b9	-0.13443269
195	0x3ea57f0f	0.323235
196	0xbe4c3e65	-0.19945677
197	0x3e92c685	0.28667083
198	0x3e36165a	0.17781964
199	0x3e17474d	0.14773293
200	0x3dab2278	0.08356184
201	0xbe5f5ef5	-0.21813567
202	0xbe8af50f	-0.2714009
203	0xbdf6064f	-0.12012922
204	0xbeaab643	-0.3334218
205	0xbe925027	-0.28576776
206	0xbf13b74b	-0.5770156
207	0xbd536bd5	-0.05161651
208	0xbf07dc74	-0.5307076
209	0xbcdc4d60	-0.026892364
210	0xbe0c7fe5	-0.13720663
211	0x3e90476d	0.28179494
212	0xbef29ee0	-0.47386837
213	0x3ec7f3ea	0.3905328
214	0xbea22ac2	-0.31673247
215	0xbe7d4fd7	-0.24737488
216	0x3e51eaa3	0.20499663
217	0xbd1dcf64	-0.03852786
218	0xbd5e1f21	-0.054228906
219	0x3e5902d6	0.21192488
220	0xba2d7325	-0.0006616584
221	0xbe34837a	-0.1762828
222	0x3dab9196	0.08377378
223	0x3eb91fc4	0.36157048
224	0xbd811e0e	-0.063045606
225	0xbec3d49e	-0.38248152
226	0x3cded989	0.027203338
227	0xbdff0133	-0.124514006
228	0xbe1a9cba	-0.15098849
229	0xbeab9032	-0.3350845
230	0x3d5a8467	0.053348925
231	0xbd83db31	-0.06438292
232	0x3e888821	0.26666358
233	0xbc7838d4	-0.015150268
234	0xbd8f211b	-0.06988736
235	0x3de79a6c	0.113087505
236	0xbdd52694	-0.10407749
237	0x3e9290ce	0.28626102
238	0x3c9ad5fc	0.018900864
239	0x3e4755e3	0.19466357
240	0xbe86f2df	-0.2635717
241	0xbe3e4ef9	-0.18584813
242	0x3ee09ba7	0.43868753
243	0xbe87fa4c	-0.2655815
244	0xbf01c7f0	-0.50695705
245	0xbe536890	-0.20645356
246	0xbeaa56f9	-0.3326948
247	0x3d78b489	0.060719047
248	0xbd7d8eb9	-0.06190369
249	0x3e92c0c4	0.28662694
250	0xbd11e402	-0.035617836
251	0x3c1549ff	0.00911188
252	0x3e758011	0.23974635
253	0xbd7a6f4a	-0.06114129
254	0x3ea09383	0.31362543
255	0x3eeeeb1d	0.46663752

linear1.bias f4 [16]
0	0x3ec2501d	0.37951747
1	0x3eae63f3	0.3406063
2	0x3e3e30bc	0.18573278
3	0x3ef0d9de	0.4704122
4	0x3ed3ebbb	0.41390786
5	0x3f1cea70	0.61295223
6	0x3e9d2f2a	0.30700046
7	0x3e737fd3	0.2377923
8	0x3f1a2ae5	0.602217
9	0x3eb72519	0.3577049
10	0x3f0a17f1	0.5394278
11	0x3ed4dbd5	0.4157397
12	0x3f1274a4	0.5720923
13	0x3e8a80c1	0.27051356
14	0x3edb99f6	0.428909
15	0x3e730877	0.23733698

linear2.weight f4 [10, 16]
0	0x3d4f97f8	0.050682038
1	0xbd4c8304	-0.049929634
2	0x3d327c02	0.043575294
3	0x3d4d725d	0.050157893
4	0xbe34ce9a	-0.17656937
5	0xbda7dd0e	-0.0819646
6	0xbdd01b7e	-0.10161494
7	0xbe123754	-0.14278919
8	0x3d923be5	0.0714033
9	0x3cc5178f	0.024059085
10	0xbe76b259	-0.24091472
11	0xbd280c19	-0.041027162
12	0x3dc800ff	0.09765815
13	0xbe0fba97	-0.14036022
14	0x3ca6d727	0.020366265
15	0x3d23c41c	0.039981946
16	0xbe8f0006	-0.27929705
17	0x3e336317	0.17518269
18	0x3e29fedd	0.16601129
19	0xbddf8e0e	-0.10915767
20	0x3dd09bd4	0.10185972
21	0xbd48e0f7	-0.04904267
22	0xbe3f8154	-0.18701679
23	0xbe574ab2	-0.21024588
24	0x3dcbfee8	0.09960729
25	0xbd8169d6	-0.06319015
26	0xbdc740e3	-0.09729173
27	0xbe3775e2	-0.17916062
28	0x3c60bcbb	0.013716872
29	0x3e15c886	0.14627275
30	0xbd639062	-0.055557616
31	0x3ced6e75	0.028983334
32	0x3c8ecff5	0.017433146
33	0xbe921e99	-0.2853897
34	0xbef62d02	-0.48081213
35	0x3e86fe5b	0.26365933
36	0xbe936d2e	-0.28794235
37	0xbec4dc9e	-0.38449568
38	0x3d2a0c6d	0.041515756
39	0xbe71a8e8	-0.23599589
40	0xbe972885	-0.295231
41	0xbe9695f1	-0.2941127
42	0x3ee702f8	0.45119452
43	0xbecfbf59	-0.40575674
44	0xbd945447	-0.07242637
45	0xbcb0bc7a	-0.021574248
46	0xbd522442	-0.05130411
47	0xbda478fb	-0.08030888
48	0x3ed662c8	0.4187224
49	0x3f1ec1f2	0.6201469
50	0x3f220256	0.63284814
51	0x3ee0d206	0.43910235
52	0x3eb62324	0.35573685
53	0x3f0842e0	0.53227043
54	0x3f16e8f7	0.58949226
55	0x3f17c7fc	0.59289527
56	0x3f0fff49	0.5624891
57	0x3f1bf8f8	0.6092677
58	0x3eb49bf3	0.3527523
59	0x3ebca82b	0.36847052
60	0x3f18f948	0.59755373
61	0x3f18c9c6	0.5968288
62	0x3ef68d8d	0.4815487
63	0x3eeff924	0.46869767
64	0xbe6c4bff	-0.23075865
65	0xbe12acec	-0.14323777
66	0x3c943683	0.0180924
67	0xbe2cd447	-0.16877852
68	0x3c6f9e60	0.014625162
69	0x3db18141	0.08667231
70	0xbd763a94	-0.06011446
71	0xbd4548e1	-0.048165206
72	0xbe712251	-0.23548247
73	0xbe280392	-0.16407612
74	0xbe444cb8	-0.19169891
75	0xbe4e7a15	-0.20163758
76	0xbe4b06fd	-0.19826885
77	0xbd47b12d	-0.048752952
78	0x3e1adfaa	0.15124384
79	0xbe6f99b9	-0.23398484
80	0x3f185149	0.5949903
81	0x3f009c21	0.50238234
82	0x3eba6cf5	0.36411253
83	0x3edb8ce3	0.42880926
84	0x3f39c8aa	0.72571814
85	0x3f198f71	0.599845
86	0x3f237dc3	0.6386377
87	0x3f0c283a	0.5474888
88	0x3e63f47b	0.2226123
89	0x3ed99fb9	0.4250467
90	0x3f2dbf7d	0.6787031
91	0x3f10cbe3	0.56561106
92	0x3ee6dad9	0.45088843
93	0x3f090eec	0.53538394
94	0x3efd9990	0.4953122
95	0x3ed5dfdf	0.41772363
96	0x3e012537	0.12611853
97	0xbe474858	-0.1946119
98	0xbe72d8db	-0.23715536
99	0xbe0f26e9	-0.13979687
100	0xbebc242b	-0.36746344
101	0xbbc9aae4	-0.006154405
102	0xbe8e314b	-0.27771983
103	0x3e110b83	0.14164548
104	0xbda85b63	-0.08220556
105	0x3db9c06a	0.09069903
106	0x3d8feea8	0.07027942
107	0xbe8fee6c	-0.2811159
108	0x3e78fd09	0.24315275
109	0xbe5a69b7	-0.2132939
110	0xbc08be6e	-0.008346183
111	0x3e133e64	0.14379269
112	0x3e02dddd	0.12779947
113	0xbeb1df1e	-0.34740537
114	0xbeadbf02	-0.3393479
115	0xbec1efef	-0.37878367
116	0xbed60e0b	-0.4180759
117	0xbe1cc73e	-0.1531038
118	0xbf077026	-0.529055
119	0xbc532ba7	-0.0128888255
120	0x3c9f527a	0.019448508
121	0xbe69fe25	-0.22850855
122	0x3ecbd97e	0.3981437
123	0xbe150919	-0.14554252
124	0x3e87f154	0.26551306
125	0xbea82739	-0.32842425
126	0xbdd33de0	-0.10314536
127	0x3de9328b	0.113865934
128	0xbe4d3ee4	-0.20043522
129	0xbd913369	-0.07089884
130	0xbdabe562	-0.08393361
131	0x3db26159	0.08709974
132	0x3da0fac4	0.0786033
133	0x3cbdd095	0.023170749
134	0x3d1635d7	0.03667244
135	0x3dfdfef7	0.12402146
136	0xbe48f8f0	-0.19626212
137	0xbceeeb02	-0.029164795
138	0xbe970f1f	-0.29503724
139	0x3d958b04	0.07301906
140	0xbe5ae792	-0.213774
141	0x3c791a74	0.015204061
142	0xbd843c8f	-0.06456863
143	0xbe9d0eea	-0.3067544
144	0x3ea1725f	0.3153257
145	0x3ef302df	0.47463128
146	0x3e8bdedf	0.27318475
147	0x3f220acd	0.6329773
148	0x3f200a97	0.6251616
149	0x3f2ddb2b	0.6791255
150	0x3f153cab	0.58295697
151	0x3ee7df44	0.45287526
152	0x3f1c3cb4	0.61030126
153	0x3f1965fa	0.5992123
154	0x3f1e33db	0.61797875
155	0x3ef93dfa	0.48680097
156	0x3e748970	0.23880553
157	0x3eebe257	0.4607112
158	0x3ecfd799	0.40594175
159	0x3eb24442	0.34817702

linear2.bias f4 [10]
0	0xbe89b7de	-0.26898092
1	0xbe408a1d	-0.18802686
2	0x3ea32fe6	0.3187248
3	0x3efefe25	0.49803272
4	0xbe0de3f8	-0.13856494
5	0x3ec19da6	0.3781559
6	0x3e1ac885	0.15115555
7	0x3eed767f	0.46379468
8	0x3e4a4a0b	0.19754808
9	0x3e9ef540	0.31046486

linear3.weight f4 [1, 10]
0	0xbe31b3b0	-0.17353702
1	0xbe6edbb0	-0.23325992
2	0xbf73099c	-0.9493654
3	0x3ee3e02f	0.44506976
4	0xbe444f98	-0.19170988
5	0x3ee53411	0.44766286
6	0xbe1e684e	-0.15469477
7	0xbf162e30	-0.58664227
8	0xbea08911	-0.31354573
9	0x3f0c3117	0.54762405
