DLnet_WineData.onnx (onnx, 4143 bytes, 5 tensors)

linear1.weight f4 [16, 32]
0	0xbe89816e	-0.2685656
1	0x3d47cfa2	0.048782
2	0xbdccddfd	-0.100032784
3	0xbdef1b2e	-0.11675106
4	0xbe73e39b	-0.23817293
5	0xbe15917b	-0.14606278
6	0x3e655557	0.22395836
7	0x3e880032	0.2656265
8	0x3e89083f	0.26764104
9	0xbe75449d	-0.23951955
10	0x3e4c5abb	0.19956486
11	0xbd8b618f	-0.06805717
12	0xbeaf416a	-0.34229594
13	0x3bc4e591	0.0060088118
14	0x3e1cb7c6	0.15304479
15	0xbe49f9de	-0.19724223
16	0xbe00bcba	-0.12571993
17	0xbe808736	-0.25103158
18	0x3e945208	0.28968835
19	0x3dd794db	0.10526439
20	0xbe0e331b	-0.13886683
21	0xbf07cde6	-0.5304855
22	0xbe73b857	-0.23800789
23	0x3e8b2123	0.2717372
24	0x3daf9e88	0.08575159
25	0xbd40c575	-0.04706331
26	0xbda012f9	-0.07816119
27	0x3e882d3d	0.26597014
28	0xbdb822b0	-0.08990991
29	0xbdb1e2a7	-0.08685809
30	0x3e2617fa	0.16220084
31	0x3e7f414a	0.2492725
32	0xbebe86a7	-0.37212107
33	0xbd93004b	-0.0717779
34	0x3e1eb119	0.15497245
35	0x3dc0d37e	0.09415339
36	0x3ec89579	0.3917654
37	0xbe68b4c2	-0.22725204
38	0xbe054213	-0.13013487
39	0xbe02002f	-0.12695383
40	0xbd288ccd	-0.041149903
41	0xbce31703	-0.027720934
42	0x3e8cea4d	0.27522507
43	0xbde29f1c	-0.11065504
44	0xbe9c3cf2	-0.30515248
45	0x3dce9925	0.10087804
46	0xbe8c6ffa	-0.2742918
47	0x3d71667d	0.05893563
48	0x3e80e0d5	0.25171533
49	0x3db42b16	0.087972805
50	0x3e8ec8a0	0.2788744
51	0x3cda5e64	0.026656337
52	0xbe25c619	-0.1618885
53	0xbd274864	-0.04084052
54	0x3e1e0a3d	0.15433593
55	0x3e2de99a	0.16983643
56	0xbcacc40d	-0.021089578
57	0xbe8f791a	-0.2802208
58	0xbe0618e2	-0.1309543
59	0xbe8de737	-0.27715465
60	0xbe2be364	-0.16785961
61	0x3d843ca7	0.06456881
62	0x3e29b607	0.16573344
63	0x3e8fb214	0.2806555
64	0xbe84038c	-0.25783956
65	0xbe99df40	-0.3005314
66	0xbd2085d6	-0.039190136
67	0xbd1abacd	-0.037775803
68	0x3e4e7e6c	0.20165414
69	0xbdb243e4	-0.08704355
70	0x3de363e9	0.11103041
71	0x3d9b047b	0.07569214
72	0x3cbae425	0.022813866
73	0xbe56bfc1	-0.20971586
74	0xbc29ce39	-0.010364109
75	0xbe2a75fb	-0.16646568
76	0x3e763204	0.24042517
77	0x3b2de595	0.0026534547
78	0x3e746557	0.23866783
79	0xbdae5f91	-0.085143216
80	0xbe97887c	-0.29596317
81	0xbe87c3e7	-0.2651665
82	0xbe3fac09	-0.1871797
83	0x3d9463b9	0.07245583
84	0x3d89df04	0.0673199
85	0x3d72a978	0.05924365
86	0xbda84576	-0.082163736
87	0xbddce4f3	-0.10785856
88	0x3df626ec	0.120191425
89	0xbd4926c5	-0.04910924
90	0xbe6d9e77	-0.23204981
91	0xbe4ce548	-0.20009339
92	0x3df2504f	0.11831724
93	0x3e66f548	0.22554505
94	0xbe038ed9	-0.12847461
95	0x3ebf78b4	0.37396777
96	0x3ea9076b	0.33013472
97	0xbd4998f6	-0.04921814
98	0xbe1d9978	-0.15390575
99	0x3d60516c	0.05476515
100	0xbe45065f	-0.19240712
101	0x3eac0f5f	0.33605477
102	0x3eabf6a7	0.33586618
103	0x3e644538	0.2229203
104	0x3d9c8272	0.07642068
105	0x3e8cf617	0.27531502
106	0x3e927a5c	0.28608978
107	0x3e2b991f	0.1675763
108	0x3e70e62c	0.23525304
109	0x3e1a7ff3	0.15087871
110	0xbdb19bec	-0.08672318
111	0xbe931f87	-0.2873499
112	0x3e386b13	0.18009596
113	0xbdd27178	-0.10275549
114	0xbd963a3d	-0.07335327
115	0xbe90ba8a	-0.28267318
116	0xbebf6004	-0.37377942
117	0x3e196add	0.14982171
118	0x3e84cf8b	0.25939593
119	0x3e42a3b2	0.19007757
120	0x3bbc7dc9	0.0057522994
121	0x3e5f3651	0.21798064
122	0xbe91bdc1	-0.28465083
123	0xbeb3d485	-0.35123077
124	0x3c3e5d15	0.011618872
125	0xbe30983a	-0.1724557
126	0xbce8bae7	-0.028409434
127	0x3eeeef5f	0.46667
128	0xbd844d93	-0.064601086
129	0x3e87935f	0.26479623
130	0x3d5b6247	0.05356052
131	0x3c8462d5	0.016160408
132	0xbe0e8337	-0.13917242
133	0xbe18ef65	-0.14935072
134	0x3e73f639	0.23824395
135	0x3e02d2ce	0.12775728
136	0x3c72fc23	0.014830622
137	0x3c88c6e4	0.016696401
138	0xbe2428ef	-0.1603124
139	0xbe88f6ce	-0.26750797
140	0xbec47798	-0.38372493
141	0x3dcb82b8	0.09937042
142	0xbf065e5d	-0.52487737
143	0x3f0c5469	0.548163
144	0x3e353e41	0.17699529
145	0xbcba6d68	-0.022757247
146	0xbd7661fe	-0.060152046
147	0xbe12f5d5	-0.1435159
148	0xbe10d24f	-0.14142726
149	0x3db38c60	0.08767009
150	0xbd911cb1	-0.070855506
151	0x3d84dc4f	0.06487333
152	0xbe439326	-0.19099101
153	0x3e7a46b1	0.24441029
154	0xbdd84cd9	-0.105615325
155	0x3ee1f3a0	0.44131184
156	0x3e469ec9	0.19396509
157	0xbdfc4fbd	-0.12319896
158	0xbdf51159	-0.119661994
159	0x3eb5e3a5	0.35525241
160	0xbe0c7e9f	-0.13720177
161	0xbe696fc9	-0.22796549
162	0x3b4a04a8	0.003082553
163	0x3e763097	0.24041973
164	0x3e502470	0.203264
165	0xbeb0c6d3	-0.3452669
166	0x3b429f9f	0.0029697192
167	0xbe7e3a8f	-0.24827026
168	0x3eb865ff	0.36015317
169	0xbb7d2c34	-0.0038631083
170	0x3eeaa8b2	0.4583183
171	0x3bf414c7	0.007448766
172	0x3d8def74	0.06930438
173	0x3dfa2327	0.12213736
174	0xbe5a849c	-0.21339649
175	0x3d143d58	0.036191314
176	0xbde46385	-0.11151794
177	0x3e5e30b8	0.21698272
178	0x3e3462be	0.17615792
179	0xbd2a95c6	-0.04164674
180	0xbeb05bbe	-0.34444994
181	0xbe27bdfc	-0.16381067
182	0xbe6f2088	-0.23352253
183	0xbe6fcb0c	-0.234173
184	0x3e4d35f4	0.20040113
185	0x3e2f5cee	0.17125294
186	0x3e488755	0.19582875
187	0xbe09dba9	-0.134627
188	0x3dae37f9	0.0850677
189	0x3d6e8806	0.05823519
190	0x3e475d17	0.19469105
191	0x3ec578b2	0.38568646
192	0xbe3f881e	-0.18704268
193	0x3ec2db2e	0.38057846
194	0xbe912604	-0.28349316
195	0x3b7a5276	0.0038196123
196	0x3f022abe	0.5084647
197	0x3e79e002	0.24401858
198	0x3d2e502e	0.042556934
199	0xbdf8e3e0	-0.12152839
200	0xbd9a4926	-0.07533483
201	0xbe82a76b	-0.25518355
202	0xbe97dfbc	-0.29662883
203	0x3e95f862	0.29291064
204	0xbe9d8afa	-0.30770093
205	0x3dbd0758	0.09229916
206	0xbe6a544b	-0.22883718
207	0x3f0c6dc5	0.54854995
208	0x3e916a71	0.2840152
209	0xbd0f4c90	-0.034985125
210	0xbe8e6d47	-0.27817747
211	0xbe65b541	-0.22432424
212	0xbe449e95	-0.19201119
213	0x3d0fd76c	0.03511755
214	0xbe55dcb0	-0.20884967
215	0x3e107508	0.14107144
216	0xbdeccaf8	-0.11562151
217	0xbd0c184b	-0.034202855
218	0xbb99ff00	-0.004699588
219	0x3e8e3e1e	0.27781767
220	0x3ebdbd0a	0.37058288
221	0xbc49b841	-0.012311996
222	0xbdf5f2dd	-0.12009213
223	0x3ef6ad1c	0.48178947
224	0x3e8fbffe	0.28076166
225	0x3e98a08d	0.2980999
226	0xbeb05ff3	-0.34448203
227	0x3d109ed9	0.03530774
228	0xbe168148	-0.14697754
229	0x3e0d30aa	0.13788095
230	0xbd0193d4	-0.03163512
231	0x3e88cade	0.26717275
232	0xbd9bd303	-0.07608607
233	0xbe69fd66	-0.2285057
234	0x3ea814ff	0.3282852
235	0x3c2e2ba3	0.010630521
236	0x3e15df7e	0.14636037
237	0xbe035f92	-0.12829426
238	0xbd8e06f8	-0.06934923
239	0xbe47850c	-0.19484347
240	0x3dffad91	0.12484277
241	0xbcde0b9b	-0.027105143
242	0xbe875056	-0.2642848
243	0xbccfc286	-0.02536131
244	0x3b951654	0.004549781
245	0x3e36ed02	0.17863849
246	0x3db7bb6d	0.089712955
247	0x3e84a7fa	0.25909406
248	0x3ce7d8dc	0.028301649
249	0xbdddb1a6	-0.108248994
250	0xbdd06e90	-0.10177338
251	0xbebcd9e0	-0.36884975
252	0xbe828147	-0.25489256
253	0xbd4e00f3	-0.050293874
254	0x3cc48a98	0.023991868
255	0x3ea0549b	0.3131455

linear1.bias f4 [16]
0	0x3f07e9c6	0.53091085
1	0x3ee3aec1	0.44469264
2	0x3ebf8ada	0.37410623
3	0x3ee59782	0.44842154
4	0x3f0fdc5a	0.56195605
5	0x3e9e38d0	0.3090272
6	0x3ee03dd7	0.4379718
7	0x3ee719b1	0.45136788
8	0x3ef063bd	0.46951094
9	0x3e6d6d22	0.23186162
10	0x3e2336d0	0.15938878
11	0x3e9270b1	0.28601602
12	0x3f042d04	0.5163119
13	0x3ec1c6cd	0.37846985
14	0x3d61e846	0.055153154
15	0x3ebe85c4	0.3721143

linear2.weight f4 [10, 16]
0	0x3e1ba887	0.15201007
1	0x3edfcece	0.43712467
2	0x3ea4495c	0.3208722
3	0x3f0c4333	0.5479004
4	0x3ec209d7	0.37898132
5	0x3ef5f571	0.4803882
6	0x3ec7253a	0.3889559
7	0x3e119cd8	0.14219987
8	0x3eb18334	0.34670413
9	0x3e35c818	0.17752111
10	0x3e9a179e	0.30096143
11	0x3eefdfb0	0.46850348
12	0x3f043c76	0.51654756
13	0x3ebaadae	0.36460632
14	0x3eef954d	0.46793595
15	0x3ee30e45	0.44346824
16	0x3ee043c2	0.43801695
17	0x3edc87dd	0.43072405
18	0x3eb5fc17	0.35543892
19	0x3dbf3f02	0.0933819
20	0x3ec4a80c	0.3840946
21	0x3dfc83a3	0.12329795
22	0x3f166816	0.5875257
23	0x3f0a196f	0.5394506
24	0x3eb3532c	0.35024393
25	0x3edbfa3b	0.42964348
26	0x3ed9c5ab	0.4253362
27	0x3e713127	0.23553906
28	0x3ef36296	0.47536153
29	0x3edb987a	0.42889768
30	0x3eef066b	0.46684584
31	0x3edcf824	0.43158066
32	0x3ee40d18	0.4454124
33	0x3eac57e2	0.336608
34	0x3e1b4a98	0.15165174
35	0x3ece8c50	0.40341425
36	0x3efc66e2	0.49297243
37	0x3f03fccb	0.51557606
38	0x3ee0e2c1	0.43923
39	0x3ee850d8	0.4537418
40	0x3ee434d5	0.44571558
41	0x3ec3eb40	0.3826542
42	0x3e863cbc	0.26218212
43	0x3e287c07	0.16453563
44	0x3d8a4e22	0.06753184
45	0x3eca3cec	0.39499605
46	0x3e94cfa1	0.29064658
47	0x3e18b583	0.14912991
48	0x3e63e963	0.22256999
49	0x3ec2e822	0.38067728
50	0x3eae778c	0.34075582
51	0x3de2412c	0.11047587
52	0x3e04d642	0.12972358
53	0x3e87f117	0.26551124
54	0x3e836f59	0.2567089
55	0x3e6c72ee	0.23090717
56	0x3e3a9eda	0.1822466
57	0x3e471c52	0.19444397
58	0x3eaa9547	0.33317015
59	0x3f03ee18	0.5153518
60	0x3e545f64	0.20739514
61	0x3e97a9d9	0.2962177
62	0x3f1088c0	0.56458664
63	0x3eeabafb	0.4584578
64	0x3e0970f6	0.13421997
65	0x3d034421	0.032047395
66	0xbe911101	-0.28333285
67	0x3e8c1049	0.27356175
68	0xbe93c2c9	-0.28859547
69	0x3e01bc83	0.12669568
70	0x3cdc6943	0.026905661
71	0xbe1557dd	-0.14584298
72	0x3e0e73ba	0.13911334
73	0x3da5772d	0.080793716
74	0xbe297667	-0.16549073
75	0x3c9fc666	0.019503783
76	0xbeb4572b	-0.35222754
77	0xbf054736	-0.52061784
78	0xbe1c4c6b	-0.15263526
79	0xbd2d035d	-0.042239536
80	0xbdce75da	-0.10081072
81	0x3de035ec	0.10947785
82	0x3e9f1e14	0.31077635
83	0xbd2e70ab	-0.042587917
84	0xbe2cbeec	-0.16869706
85	0xbec0314f	-0.3753762
86	0xbe3ae60e	-0.18251821
87	0xbf104b6a	-0.5636507
88	0x3dd85e5f	0.10564875
89	0x3dc314a9	0.09525425
90	0x3df70f51	0.12063468
91	0xbea8b3fb	-0.32949814
92	0xbf04c731	-0.5186644
93	0x3e524fd5	0.20538266
94	0xbee93a81	-0.45552447
95	0x3ddfd7a1	0.109298
96	0x3e20ef30	0.15716243
97	0xbe43564c	-0.19075888
98	0xbdcbeb9b	-0.099570476
99	0xbe37f598	-0.1796478
100	0xbe4a64c5	-0.19765003
101	0xbd1f42e0	-0.038882136
102	0xbe05448d	-0.13014431
103	0x3cd2e201	0.025742533
104	0x3e80a528	0.25126004
105	0x3e114505	0.14186485
106	0xbe3dc1d4	-0.18530971
107	0xbe8b6c80	-0.27231216
108	0xbde878ab	-0.113511406
109	0x3e4e027b	0.20118134
110	0xbeade37f	-0.33962628
111	0xbd139ac1	-0.036036257
112	0x3ec48bcd	0.3838791
113	0x3e3d155a	0.18465176
114	0x3dbdb520	0.092630625
115	0x3e726a11	0.23673274
116	0x3e53dc95	0.20689614
117	0x3e94f542	0.29093367
118	0x3f0b5c9b	0.5443818
119	0x3ef0a887	0.47003576
120	0x3f0087bb	0.5020711
121	0x3f13a6bb	0.57676286
122	0x3f1185a5	0.5684455
123	0x3e164658	0.14675272
124	0x3eb3c596	0.35111684
125	0x3eaa71f7	0.33290073
126	0x3ee00f22	0.43761545
127	0x3ea1d179	0.31605127
128	0xbe851de6	-0.25999373
129	0x3ea4f62c	0.32219064
130	0x3e66c787	0.22537051
131	0xbe53697e	-0.20645711
132	0x3de05be8	0.1095503
133	0xbe3c6a8e	-0.18400022
134	0xbe41083a	-0.18850794
135	0xbe1cbd30	-0.15306544
136	0xbd91db65	-0.07121924
137	0xbed6ff47	-0.41991636
138	0x3eb210f9	0.34778574
139	0xbcfca72e	-0.030841436
140	0xbe4036a1	-0.1877084
141	0x3d869e4c	0.065731615
142	0xbe7d26a6	-0.24721774
143	0x3e5dde63	0.21666865
144	0x3e7b7be5	0.24558981
145	0x3df1493b	0.11781546
146	0x3ed79829	0.42108276
147	0x3ed5efd3	0.41784534
148	0x3ef93273	0.48671302
149	0x3edee38a	0.43532974
150	0x3e94af25	0.29039875
151	0x3e97c370	0.29641294
152	0x3d73617b	0.059419136
153	0x3eb7d9fa	0.3590849
154	0x3e7c018b	0.24609964
155	0x3e998107	0.29981253
156	0x3e9dbded	0.30808964
157	0x3edf4804	0.4360963
158	0x3f16374a	0.58678114
159	0x3efcc8dd	0.49371997

linear2.bias f4 [10]
0	0x3ebde1bf	0.37086293
1	0x3e2bbcbc	0.16771215
2	0x3e85495a	0.26032525
3	0x3ddb245c	0.107002944
4	0xbe1ca0c5	-0.15295704
5	0x3f37798a	0.7166983
6	0x3e4c83a9	0.199721
7	0x3ecdb6de	0.4017858
8	0x3d9632b0	0.073338866
9	0x3e3d4f8f	0.1848738

linear3.weight f4 [1, 10]
0	0x3ec454d8	0.3834598
1	0x3ecb3260	0.3968687
2	0x3ee3292e	0.44367355
3	0x3f29378d	0.6610039
4	0x3ed5a469	0.41726997
5	0xbf3d24a8	-0.7388406
6	0xbe85c332	-0.26125485
7	0x3eacc4cb	0.3374389
8	0xbf0e6fca	-0.55639327
9	0x3eb3fb59	0.351527
